// ./assets/images/test_net
digraph "./assets/images/test_net" {
	0 [label="0 :: convolution_block(
  (conv_layer): Conv2d(3, 32, kernel_size=(3, 3), stride=(1, 1))
  (batch_norm): BatchNorm2d(32, eps=1e-05, momentum=0.1, affine=True, track_running_stats=True)
  (relu): ReLU()
)"]
	1 [label="1 :: convolution_block(
  (conv_layer): Conv2d(32, 24, kernel_size=(3, 3), stride=(1, 1))
  (batch_norm): BatchNorm2d(24, eps=1e-05, momentum=0.1, affine=True, track_running_stats=True)
  (relu): ReLU()
)"]
	2 [label="2 :: FlattenBlock()"]
	3 [label="3 :: fullyConnectedBlock()"]
	4 [label="4 :: fullyConnectedBlock()"]
	5 [label="5 :: convolution_block(
  (conv_layer): Conv2d(32, 3, kernel_size=(3, 3), stride=(1, 1))
  (batch_norm): BatchNorm2d(3, eps=1e-05, momentum=0.1, affine=True, track_running_stats=True)
  (relu): ReLU()
)"]
	6 [label="6 :: add_block()"]
	7 [label="7 :: convolution_block(
  (conv_layer): Conv2d(3, 3, kernel_size=(1, 1), stride=(1, 1))
  (batch_norm): BatchNorm2d(3, eps=1e-05, momentum=0.1, affine=True, track_running_stats=True)
  (relu): ReLU()
)"]
	8 [label="8 :: add_block()"]
	9 [label="9 :: convolution_block(
  (conv_layer): Conv2d(3, 48, kernel_size=(3, 3), stride=(1, 1), padding=(1, 1))
  (batch_norm): BatchNorm2d(48, eps=1e-05, momentum=0.1, affine=True, track_running_stats=True)
  (relu): ReLU()
)"]
	10 [label="10 :: convolution_block(
  (conv_layer): Conv2d(12, 3, kernel_size=(3, 3), stride=(1, 1), padding=(1, 1))
  (batch_norm): BatchNorm2d(3, eps=1e-05, momentum=0.1, affine=True, track_running_stats=True)
  (relu): ReLU()
)"]
	11 [label="11 :: convolution_block(
  (conv_layer): Conv2d(12, 3, kernel_size=(3, 3), stride=(1, 1), padding=(1, 1))
  (batch_norm): BatchNorm2d(3, eps=1e-05, momentum=0.1, affine=True, track_running_stats=True)
  (relu): ReLU()
)"]
	12 [label="12 :: convolution_block(
  (conv_layer): Conv2d(48, 12, kernel_size=(5, 5), stride=(1, 1), padding=(2, 2))
  (batch_norm): BatchNorm2d(12, eps=1e-05, momentum=0.1, affine=True, track_running_stats=True)
  (relu): ReLU()
)"]
	13 [label="13 :: convolution_block(
  (conv_layer): Conv2d(32, 3, kernel_size=(17, 17), stride=(1, 1), padding=(7, 7))
  (batch_norm): BatchNorm2d(3, eps=1e-05, momentum=0.1, affine=True, track_running_stats=True)
  (relu): ReLU()
)"]
	14 [label="14 :: add_block()"]
	15 [label="15 :: convolution_block(
  (conv_layer): Conv2d(3, 3, kernel_size=(5, 5), stride=(1, 1), padding=(2, 2))
  (batch_norm): BatchNorm2d(3, eps=1e-05, momentum=0.1, affine=True, track_running_stats=True)
  (relu): ReLU()
)"]
	16 [label="16 :: convolution_block(
  (conv_layer): Conv2d(3, 3, kernel_size=(3, 3), stride=(1, 1), padding=(1, 1))
  (batch_norm): BatchNorm2d(3, eps=1e-05, momentum=0.1, affine=True, track_running_stats=True)
  (relu): ReLU()
)"]
	17 [label="17 :: convolution_block(
  (conv_layer): Conv2d(12, 3, kernel_size=(9, 9), stride=(1, 1), padding=(4, 4))
  (batch_norm): BatchNorm2d(3, eps=1e-05, momentum=0.1, affine=True, track_running_stats=True)
  (relu): ReLU()
)"]
	18 [label="18 :: add_block()"]
	19 [label="19 :: convolution_block(
  (conv_layer): Conv2d(24, 12, kernel_size=(3, 3), stride=(1, 1), padding=(1, 1))
  (batch_norm): BatchNorm2d(12, eps=1e-05, momentum=0.1, affine=True, track_running_stats=True)
  (relu): ReLU()
)"]
	20 [label="20 :: convolution_block(
  (conv_layer): Conv2d(3, 3, kernel_size=(5, 5), stride=(1, 1), padding=(2, 2))
  (batch_norm): BatchNorm2d(3, eps=1e-05, momentum=0.1, affine=True, track_running_stats=True)
  (relu): ReLU()
)"]
	0 -> 1
	0 -> 5
	0 -> 13
	1 -> 19
	2 -> 3
	3 -> 4
	5 -> 6
	6 -> 14
	7 -> 8
	8 -> 2
	9 -> 12
	10 -> 9
	11 -> 15
	12 -> 11
	12 -> 17
	13 -> 14
	14 -> 8
	15 -> 20
	16 -> 6
	16 -> 7
	17 -> 18
	18 -> 16
	19 -> 10
	20 -> 18
}
